Homework/iris/iris_443/w_4_4_InitialMethod.Xavier_init.npz (npz, 668 bytes, 2 tensors)

weights f8 [4, 4]
00000000: 544c a52d 4125 e23f 1030 cd2e 9960 d63f
00000010: 409c 3437 466c 8fbf f4fe 907d 93ce df3f
00000020: 9c3c 8156 64b7 e6bf 74fb 8cd1 5c6d d33f
00000030: a490 a853 bbfb d63f 403e 14fe d9c6 8e3f
00000040: 1c9e 3732 7396 cbbf c02b ddb8 d6ae d03f
00000050: 101e bcdb a681 d03f c32f e4fd 5216 ebbf
00000060: 89d5 5323 0053 d9bf b0d4 f673 7989 c63f
00000070: dcba 1832 af2b df3f 502a 2a3d 397b a7bf
0.5670476809995173 0.34964589662990964 -0.015343235549677314 0.4969834066614418 -0.7098867120311243 0.30354996169983584 0.3591144864060516 0.015027716699960725
-0.21552886917128056 0.2606713109313965 0.25791331728439193 -0.8464751204314712 -0.39569095087002687 0.1760703865271913 0.4870412816261884 -0.04586199638022903

bias f8 [1, 4]
00000000: 0000 0000 0000 0000 0000 0000 0000 0000
00000010: 0000 0000 0000 0000 0000 0000 0000 0000
0.0 0.0 0.0 0.0
