ch11/Bank_2N3/w_10_3_InitialMethod.Xavier_init.npz (npz, 772 bytes, 2 tensors)

weights f8 [10, 3]
00000000: e394 6894 0036 e3bf 5822 bcf9 6a7a b8bf
00000010: c8a9 942a 811b e43f 500f 2465 c482 e3bf
00000020: 567c 2160 dc5b e03f cca3 f8ed 65c1 e13f
00000030: ed20 724f 1304 dfbf 2998 26ee e37b e3bf
00000040: 00b7 67e5 e51b 813f e320 1513 b831 d6bf
00000050: 70cc 6731 f565 adbf d628 87d7 532b d7bf
00000060: f391 29c1 10df e3bf 4cb5 e2a1 5369 e13f
00000070: a4de db4b a0b6 d53f e445 aff0 5201 c3bf
00000080: 307a 3595 65ca bb3f d035 cf35 ce28 b93f
00000090: c0f2 3493 c539 8ebf 30d1 05c1 9bfc db3f
000000a0: e892 6f3d 530f da3f 5293 4072 ecf2 e23f
000000b0: 4407 e2ba 708c d33f d005 5fc6 1ef2 e13f
000000c0: a05d 5476 a355 e33f 58f6 daac d588 bf3f
000000d0: dfe6 f7a7 b4f7 e2bf 10fc 718c 225f d9bf
000000e0: 1e00 b418 c00e e43f 6cd1 4340 13f2 df3f
-0.6003420733074133 -0.09561794850390848 0.6283574897436717 -0.6097127890975376 0.5112134816698795 0.5548581741214718 -0.4846237445676838 -0.6088733340627687
0.00835399252261082 -0.3467846094467985 -0.057418501168194136 -0.3620195011868764 -0.6209796688750074 0.5441072618320191 0.3392716160592306 -0.14847790481739687
0.10855708020015054 0.09827889264780443 -0.014758628420730502 0.43729299402118027 0.4071853733023958 0.5921537620057313 0.3054467988041447 0.5608056902348668
0.6042039214252561 0.1231816813478529 -0.5927375107414398 -0.39643157687527353 0.6268005831225343 0.49915009761686835

bias f8 [1, 3]
00000000: 0000 0000 0000 0000 0000 0000 0000 0000
00000010: 0000 0000 0000 0000
0.0 0.0 0.0
