ch11/Bank_2N3/w_2_64_InitialMethod.Xavier_init.npz (npz, 2044 bytes, 2 tensors)

weights f8 [2, 64]
-0.2763847320315087 -0.0766425655183339 -0.09442619353124401 0.027652168299756863 -0.006866361059297943 -0.18365076236976707 -0.05504232927237848 0.10789674422978701
0.17609206784282572 -0.05697073621151083 -0.2955196652330075 0.1809644741895411 0.06741979151223171 -0.03653574418550526 0.016573625207958187 -0.13075179114186525
0.08886516297763197 -0.03337369496791631 -0.23013892200227853 0.24921045128296682 0.29674109950211014 0.14827142738904886 0.05100625730413638 0.1437820818605438
0.06934839158159894 -0.2701751267944179 0.170524701942804 0.14824751163969402 -0.271677627209636 -0.28799164260012455 -0.25650145770825405 -0.08433862480629298
-0.026164686352611655 0.014639365353927847 -0.23687263469622 0.012846746469249215 0.19745485601979218 0.21804617810164684 -0.1541440531674128 0.12887257285207776
0.2154225727336465 0.1730198666144292 -0.09634436409842811 0.2120123944230844 -0.0009912759380593106 0.05935741261673688 0.09318919253157781 0.21567840590810916
0.1706018785898617 0.11016080153965835 -0.2091650873459491 -0.19989563825136392 -0.00961407129475178 0.21883560001482405 -0.17137899747075114 0.2864749345376538
0.17972990279086526 -0.13112714467897393 -0.03801711004692038 -0.17252724597362207 0.1621671672151742 0.1250386942496688 -0.06617051660346182 -0.22828715376926567
0.04927887587955443 0.21245540464253176 -0.15805624056686857 -0.15624088723725427 0.09872138590505902 0.0627241346375107 0.1565721900986563 -0.1560674254396373
-0.044031170137579234 -0.2834512276094927 -0.26181880549223796 -0.23909500003290818 0.2520409825698957 0.11585257421742395 -0.10644959478918284 0.05612316482244584
0.18413027452787956 0.14971382074138273 0.21390642961693296 0.18440080422970084 0.09416228381396252 0.22536118519317105 -0.023532167272080073 0.1654324087208361
-0.05205727383495304 -0.289527607431842 -0.2863502889677574 -0.038221871514854955 0.17461417134255963 0.23567226144169218 -0.10182932208106013 0.28100396986852216
-0.20175039500453665 0.027876673286092946 -0.027912644069713666 0.05627684039540043 0.2651833779457349 -0.1266863921132529 0.15948907538474494 -0.16121336171120998
0.007102670571794256 -0.08860762103213507 -0.07895188543658474 0.1644166928107691 -0.02993367065003344 -0.26330970466283593 -0.24696367244535267 -0.23770140975575543
-0.021909487381359782 0.2031733810236377 0.029766215194463652 -0.13790197431955362 -0.18355009025158686 -0.18081058649085777 0.08979373060617213 0.19712669812428335
0.1937921827629142 -0.1901424336599141 0.1812491526387493 0.0571200887102713 -0.27736275664611726 0.2803497187875478 -0.06727711591829005 0.09123428454442034
00000000: 7419 4c96 49b0 d1bf f6fd 61e0 d89e b3bf
00000010: ce3a 1aa5 502c b8bf d034 0b9a d950 9c3f
00000020: 804d 13c3 e61f 7cbf 34be 2141 de81 c7bf
00000030: fcb5 3d18 822e acbf e8d2 cffb 1e9f bb3f
00000040: 5027 3c54 2f8a c63f e007 b7b1 442b adbf
00000050: 690a 6050 cbe9 d2bf 98e2 3009 d829 c73f
00000060: b4ee a567 6c42 b13f 28d3 d224 d0b4 a2bf
00000070: b034 fa28 adf8 903f 8a82 6c85 79bc c0bf
00000080: 9c1d be08 debf b63f 9025 de60 5b16 a1bf
00000090: 6aab c433 3175 cdbf 9476 0ac9 20e6 cf3f
000000a0: ba66 6f61 cefd d23f 209a c8e1 8efa c23f
000000b0: 0877 06fe 7d1d aa3f 1ac1 ab85 7367 c23f
000000c0: 0488 dff1 d0c0 b13f 5494 719d 8c4a d1bf
000000d0: 2893 00e1 c0d3 c53f ca59 1a43 c6f9 c23f
000000e0: a5e5 fa8e 2a63 d1bf 6849 9f7f 746e d2bf
000000f0: 08ee 0e17 856a d0bf 1228 5553 3797 b5bf
00000100: f03b c760 eaca 9abf 003d 6f5b 3efb 8d3f
00000110: 2037 abad d751 cebf 003d 901f 654f 8a3f
00000120: 784c 8562 3346 c93f 4c70 fbe9 efe8 cb3f
00000130: d20b 9d09 feba c3bf 7422 e07e e57e c03f
00000140: 6008 5b84 f792 cb3f a268 55d6 8325 c63f
00000150: 04e8 f434 06aa b8bf 0c68 32de 3823 cb3f
00000160: 00c5 0e6f b63d 50bf a099 ed43 1864 ae3f
00000170: b486 4336 3fdb b73f 3814 ea99 599b cb3f
00000180: befd 9648 48d6 c53f 88fa e98f 7f33 bc3f
00000190: add3 ceec ebc5 cabf 308a 7326 2e96 c9bf
000001a0: c0c6 56ce 8ab0 83bf 84d1 a110 ce02 cc3f
000001b0: a0d7 ad3a bfef c5bf 34a1 bdf6 9a55 d23f
000001c0: a2cd 4cb3 6301 c73f 81cc 0137 c6c8 c0bf
000001d0: b80e ae88 fa76 a3bf 7215 906f 5f15 c6bf
000001e0: 1c4a d6cb e4c1 c43f 2eb8 4497 4401 c03f
000001f0: 7e73 c50c 8df0 b0bf 0099 c471 8338 cdbf
00000200: c899 92b0 143b a93f d028 661b bd31 cb3f
00000210: 96ea 14d8 2f3b c4bf 30b3 7d8e b3ff c3bf
00000220: 2cc6 e003 ce45 b93f 6021 f05a b00e b03f
00000230: d8e9 f7b9 8e0a c43f faf8 1d74 04fa c3bf
00000240: 18b4 7de7 408b a6bf 3401 269e 1024 d2bf
00000250: dd48 c4a9 a3c1 d0bf 90a4 e33a aa9a cebf
00000260: 10ec 5880 7021 d03f f4d6 6ba9 83a8 bd3f
00000270: 02c0 4ad8 4740 bbbf 80bc ebea 2cbc ac3f
00000280: cc7e a6b1 9491 c73f 04f6 eb8d d229 c33f
00000290: e4ee cd2f 4961 cb3f a4e6 c20f 729a c73f
000002a0: 4865 7ff9 041b b83f d4a2 18a4 a2d8 cc3f
000002b0: 00b0 5903 d118 98bf 88c6 93a0 e32c c53f
000002c0: 4cb3 4741 40a7 aabf 6c5e 4dcd 9e87 d2bf
000002d0: 4844 9429 9053 d2bf f8e2 4b30 d191 a3bf
000002e0: bcce aad5 c159 c63f f8b3 bb37 822a ce3f
000002f0: 4aac 1c88 7c11 babf 0a6a 2813 f8fb d13f
00000300: cdf1 3ffa f4d2 c9bf 5016 57e0 b38b 9c3f
00000310: f07d b2d5 2195 9cbf 4879 0a6a 51d0 ac3f
00000320: 3410 eeb3 c3f8 d03f 72c1 7c7b 4237 c0bf
00000330: 9262 6c55 236a c43f b22a 1db2 a3a2 c4bf
00000340: 0034 1f9d b017 7d3f da66 8232 fdae b6bf
00000350: 125d e8d5 3036 b4bf 28f5 442f 9b0b c53f
00000360: 70ea f6a1 eea6 9ebf 5dc3 8ff2 10da d0bf
00000370: dcf6 3970 819c cfbf ae99 8ef2 ff6c cebf
00000380: a0aa 19cf 706f 96bf d406 75d9 9501 ca3f
00000390: 20c8 24e3 087b 9e3f ebce e09a c5a6 c1bf
000003a0: 1c7a 67c1 917e c7bf 1fd9 df21 cd24 c7bf
000003b0: 38df 56d0 b8fc b63f 965e ce98 723b c93f
000003c0: 3cf5 97a7 2ece c83f e359 1357 9656 c8bf
000003d0: 0c6d 8117 2c33 c73f 7014 e921 d83e ad3f
000003e0: 4d1a 3bb8 4fc0 d1bf fea8 68f2 3ff1 d13f
000003f0: cc64 a3b4 1239 b1bf 146a 644c 215b b73f

bias f8 [1, 64]
0.0 0.0 0.0 0.0 0.0 0.0 0.0 0.0
0.0 0.0 0.0 0.0 0.0 0.0 0.0 0.0
0.0 0.0 0.0 0.0 0.0 0.0 0.0 0.0
0.0 0.0 0.0 0.0 0.0 0.0 0.0 0.0
0.0 0.0 0.0 0.0 0.0 0.0 0.0 0.0
0.0 0.0 0.0 0.0 0.0 0.0 0.0 0.0
0.0 0.0 0.0 0.0 0.0 0.0 0.0 0.0
0.0 0.0 0.0 0.0 0.0 0.0 0.0 0.0
00000000: 0000 0000 0000 0000 0000 0000 0000 0000
00000010: 0000 0000 0000 0000 0000 0000 0000 0000
00000020: 0000 0000 0000 0000 0000 0000 0000 0000
00000030: 0000 0000 0000 0000 0000 0000 0000 0000
00000040: 0000 0000 0000 0000 0000 0000 0000 0000
00000050: 0000 0000 0000 0000 0000 0000 0000 0000
00000060: 0000 0000 0000 0000 0000 0000 0000 0000
00000070: 0000 0000 0000 0000 0000 0000 0000 0000
00000080: 0000 0000 0000 0000 0000 0000 0000 0000
00000090: 0000 0000 0000 0000 0000 0000 0000 0000
000000a0: 0000 0000 0000 0000 0000 0000 0000 0000
000000b0: 0000 0000 0000 0000 0000 0000 0000 0000
000000c0: 0000 0000 0000 0000 0000 0000 0000 0000
000000d0: 0000 0000 0000 0000 0000 0000 0000 0000
000000e0: 0000 0000 0000 0000 0000 0000 0000 0000
000000f0: 0000 0000 0000 0000 0000 0000 0000 0000
00000100: 0000 0000 0000 0000 0000 0000 0000 0000
00000110: 0000 0000 0000 0000 0000 0000 0000 0000
00000120: 0000 0000 0000 0000 0000 0000 0000 0000
00000130: 0000 0000 0000 0000 0000 0000 0000 0000
00000140: 0000 0000 0000 0000 0000 0000 0000 0000
00000150: 0000 0000 0000 0000 0000 0000 0000 0000
00000160: 0000 0000 0000 0000 0000 0000 0000 0000
00000170: 0000 0000 0000 0000 0000 0000 0000 0000
00000180: 0000 0000 0000 0000 0000 0000 0000 0000
00000190: 0000 0000 0000 0000 0000 0000 0000 0000
000001a0: 0000 0000 0000 0000 0000 0000 0000 0000
000001b0: 0000 0000 0000 0000 0000 0000 0000 0000
000001c0: 0000 0000 0000 0000 0000 0000 0000 0000
000001d0: 0000 0000 0000 0000 0000 0000 0000 0000
000001e0: 0000 0000 0000 0000 0000 0000 0000 0000
000001f0: 0000 0000 0000 0000 0000 0000 0000 0000
