step6/Bank_2N3/w_16_3_InitialMethod.Xavier_init.npz (npz, 916 bytes, 2 tensors)

weights f8 [16, 3]
000000 5c 7c e7 32 44 79 dd 3f c5 12 87 22 26 e7 d1 bf
       0.460526513777898 -0.27973321315611727
000010 28 43 05 18 8f 0a df 3f 80 d1 86 98 6e 4b d4 3f
       0.48501946779019756 0.31710400481394885
000020 b4 a7 c3 33 4f bb c3 3f 80 80 7c b1 af bd 97 bf
       0.1541537287478697 -0.023184533317476497
000030 69 64 a2 b5 0f 12 d3 bf 4d 81 45 84 da ed df bf
       -0.297977378251352 -0.498892430468932
000040 48 5c 52 e3 63 40 be 3f 9c 1f d4 fe e6 f2 c7 3f
       0.11817001628729529 0.187100290706664
000050 4a 01 2f d1 08 03 d9 bf d0 60 51 32 ab df ab 3f
       -0.39081020763480423 0.054440832035369646
000060 90 ca 46 7f d9 e8 e1 bf 22 4f c7 3d e4 96 e0 3f
       -0.5596740232343382 0.5184193808185891
000070 2e 4a 9c 25 c6 24 d3 3f d8 84 0d dd 82 1e b9 3f
       0.2991195075311762 0.09812181374356344
000080 39 a5 d8 e0 e4 f5 d1 bf 8a 24 af 70 20 e4 cf bf
       -0.28063318212169325 -0.24914937498241257
000090 21 fb d8 08 17 26 d1 bf 08 de 63 b2 cb 84 c9 bf
       -0.2679498278047721 -0.19936510286764553
0000a0 c8 74 f8 3c 26 6b d6 3f 50 1c 2c fa 91 2c b7 3f
       0.35028987840798864 0.0905238376400217
0000b0 68 32 4f e4 19 bb d8 bf bf b8 12 6b 8c 6c d8 bf
       -0.3864197473128912 -0.3816252751956987
0000c0 88 15 ac be 3e bb ce 3f 40 d2 4b 77 f4 84 a7 bf
       0.2400892668739909 -0.045936240732690425
0000d0 c0 76 e8 b1 81 f4 e0 bf 84 cd 3d 8c 23 10 cf 3f
       -0.5298469996229969 0.24268001888013313
0000e0 f2 97 cb 4e 45 03 e0 3f e4 ad 93 fc 8e f9 c2 3f
       0.5003992594690756 0.14824092228751262
0000f0 0e a0 c0 23 96 b2 db bf 54 6f 79 9c b7 50 dc 3f
       -0.4327750538964218 0.44242658882807473
000100 4c 71 c3 ce ea e4 d5 3f dc 58 bb ab 7e e3 de 3f
       0.34209699813597605 0.48263518114744186
000110 34 85 84 3c 2e 66 c0 bf 34 80 33 4b 1c a8 b1 bf
       -0.12811830477679964 -0.06897141300169168
000120 28 17 98 71 40 ae dc 3f 3f f8 57 ad 18 40 d3 bf
       0.4481354817693153 -0.3007871334847358
000130 7c ec 1f c3 60 dd d4 3f da f6 e6 bf 66 7c d1 3f
       0.3260118394388838 0.2732178567929232
000140 57 e9 76 47 9b 88 e0 bf ac f8 cf 99 a9 88 db 3f
       -0.516675605372522 0.43021621723881753
000150 50 e4 e4 8a 73 30 de bf a0 47 75 6d 02 b3 a2 bf
       -0.47170723499181566 -0.036521983968341276
000160 98 e5 57 87 7f 63 cf 3f 4c ff 1c 54 aa 55 d9 bf
       0.24522394283830518 -0.3958535977762849
000170 10 3f 4a 51 85 87 a4 bf 50 20 a5 84 ef 50 b8 3f
       -0.04009644143400071 0.0949849795189277

bias f8 [1, 3]
000000 00 00 00 00 00 00 00 00 00 00 00 00 00 00 00 00
       0.0 0.0
000010 00 00 00 00 00 00 00 00
       0.0
