step6/Bank_2N3/w_2_10_InitialMethod.Xavier_init.npz (npz, 748 bytes, 2 tensors)

weights f8 [2, 10]
0	0xbfd60f38d801c92c	-0.3446790799563526
1	0x3fbae47d5e9eeaa8	0.10504897651746126
2	0xbfe145c2c7feac87	-0.5397657304905729
3	0xbfd4de4133772c33	-0.3260653498261405
4	0xbfd1c3bc60ccffad	-0.2775717683143693
5	0xbfcad134ccbcf050	-0.20950946804976178
6	0xbfe5b9afdd1457f6	-0.6789168661077827
7	0x3fb0110509005030	0.06275969953304705
8	0x3fd9cbf64f034a26	0.40307386127566003
9	0x3fd394caa10cdbf6	0.3059565136676946
10	0xbfde5ac4c67d1567	-0.4742900789609252
11	0xbfe146a8866c1f68	-0.5398752808987242
12	0xbfe1157256fab8fa	-0.5338679980102647
13	0x3fd3582f9258a77a	0.3022574357188358
14	0xbfe0d77b95fd5a01	-0.5263040475354616
15	0x3fd78ecb595676a2	0.3680904743613188
16	0xbfe61625a356e152	-0.6902034940931492
17	0x3fd89aa9a44cd38e	0.38443985981876316
18	0x3fd87d42b67be20e	0.3826453001088631
19	0x3fb494dc232f8da8	0.08039642199542263

bias f8 [1, 10]
0	0x0000000000000000	0.0
1	0x0000000000000000	0.0
2	0x0000000000000000	0.0
3	0x0000000000000000	0.0
4	0x0000000000000000	0.0
5	0x0000000000000000	0.0
6	0x0000000000000000	0.0
7	0x0000000000000000	0.0
8	0x0000000000000000	0.0
9	0x0000000000000000	0.0
