step6/Bank_2N3/w_2_16_InitialMethod.Xavier_init.npz (npz, 892 bytes, 2 tensors)

weights f8 [2, 16]
000000 3d ac 7f ad 22 40 d0 bf 14 cc 00 29 38 40 d5 3f
       -0.2539145178149658 0.33204463962755537
000010 b8 2b 29 34 42 63 df 3f 74 15 71 70 a8 09 c7 bf
       0.490433264673523 -0.17998223772353195
000020 00 e1 34 20 ff ac ba bf a0 45 0c 83 c0 f5 d1 3f
       -0.1042022184018414 0.28062451169633995
000030 d0 4b 1d 96 f8 f7 b0 bf 80 3e ac 71 2b 48 a5 3f
       -0.06628373780158303 0.041566236139371604
000040 34 c7 97 3b a0 75 c4 3f cd 41 23 b5 4f 8a e1 bf
       0.1598396578770519 -0.5481337106557987
000050 ea 9c e7 a0 a8 d8 e0 3f f0 54 2f 34 6f 47 cc 3f
       0.526447595851008 0.2209300045784981
000060 3a 5d cb 39 d4 02 d2 bf 8f 94 c7 68 17 fc e0 bf
       -0.2814226688764908 -0.530772881171872
000070 cd 87 8e 53 b5 32 d0 bf 40 2e 88 52 2c 1d bf bf
       -0.2530949893936139 -0.12153889670315099
000080 08 b9 4b 82 ea 6a bf 3f ea d8 36 75 44 d2 c9 bf
       0.12272515946435558 -0.20172935222007676
000090 d0 88 cf 25 90 3f ac 3f 5c d9 08 11 61 84 c5 3f
       0.055172447791635215 0.16810239154592466
0000a0 41 11 ef 5e 94 fc e0 bf fa da 54 e8 15 12 c2 bf
       -0.5308324674775023 -0.14117692798910025
0000b0 e6 34 3a 9f 73 6b e2 3f f8 61 db 0c a4 5c b3 3f
       0.5756166562947811 0.07563233674898828
0000c0 c8 76 f8 57 bd 59 b0 3f d8 e6 a4 95 84 7d c3 bf
       0.06386931798666773 -0.15226800257533202
0000d0 e8 30 4c 91 58 c1 bc 3f 46 63 37 0e c2 e9 da 3f
       0.11232522532754141 0.42051745785061134
0000e0 bc 3d d3 d0 5e a3 d8 3f 8c 73 f3 ec 1d dc df 3f
       0.3849713362987719 0.4978098691915924
0000f0 70 ef 6c 67 3e b4 cf 3f 00 9c 6e e6 14 e8 50 3f
       0.2476881031997169 0.0010318950751100342

bias f8 [1, 16]
000000 00 00 00 00 00 00 00 00 00 00 00 00 00 00 00 00
       0.0 0.0
000010 00 00 00 00 00 00 00 00 00 00 00 00 00 00 00 00
       0.0 0.0
000020 00 00 00 00 00 00 00 00 00 00 00 00 00 00 00 00
       0.0 0.0
000030 00 00 00 00 00 00 00 00 00 00 00 00 00 00 00 00
       0.0 0.0
000040 00 00 00 00 00 00 00 00 00 00 00 00 00 00 00 00
       0.0 0.0
000050 00 00 00 00 00 00 00 00 00 00 00 00 00 00 00 00
       0.0 0.0
000060 00 00 00 00 00 00 00 00 00 00 00 00 00 00 00 00
       0.0 0.0
000070 00 00 00 00 00 00 00 00 00 00 00 00 00 00 00 00
       0.0 0.0
