step6/Bank_2N3/w_2_32_InitialMethod.Xavier_init.npz (npz, 1276 bytes, 2 tensors)

weights f8 [2, 32]
000000 58 9c c6 16 b2 9b a8 bf f0 98 db bf b6 64 b3 bf
       -0.04806286361718354 -0.07575552162197474
000010 f4 01 d1 04 80 bb d1 3f 30 00 47 4b f9 9c b5 3f
       0.2770690962825306 0.08442648017717214
000020 88 c9 47 90 5a b1 d0 3f 64 c8 c6 f9 33 6f c9 bf
       0.2608248146999803 -0.1987061471568864
000030 ea d2 3a b7 d9 9b d5 3f 88 ae 5b a4 9b e4 c6 3f
       0.33763735669644623 0.17885156178759964
000040 98 2d 4e b1 b2 0c bc 3f c0 fb b4 8e 08 6a d0 bf
       0.10956875637764651 -0.2564717668173522
000050 30 4d 90 b6 e6 2d c0 3f 69 eb e7 ef 1a 8e d9 bf
       0.1264007941650589 -0.39929841450037046
000060 38 9b ef 87 cc 96 a2 3f 4c bb f4 1f c6 28 c1 bf
       0.03630675467848338 -0.1340568214449952
000070 60 25 51 37 42 e8 ba 3f a4 78 65 32 f7 5b d8 3f
       0.10510648584854243 0.3806131355430671
000080 58 ca 4f 69 45 04 a2 bf ca 03 ca 82 4f b6 cd bf
       -0.03518883619826302 -0.23212617765605464
000090 10 44 b7 b2 0d be a3 3f 10 73 80 78 ea 06 be bf
       0.038559368196395494 -0.11729302827775379
0000a0 38 f7 54 91 c2 2e aa 3f 5c a5 cb bc da fd b0 3f
       0.051138000717840304 0.06637351140274944
0000b0 f9 ba 62 45 a8 aa cc bf c2 6b da 6e 99 c8 c3 bf
       -0.22395804775211284 -0.15455930626634823
0000c0 70 48 57 80 f8 43 d6 bf f4 9c a7 90 5c 2a c6 3f
       -0.3478986028031903 0.1731677728960005
0000d0 18 b7 79 3b 8d 32 bb bf 44 12 37 1a f7 78 c6 3f
       -0.10624010755574564 0.17556656627688672
0000e0 92 f3 c2 1f cb b8 c4 bf a0 03 f6 36 cf f3 a9 3f
       -0.16188944865089333 0.05068824335012967
0000f0 c0 b1 d7 38 56 50 8d bf e2 8e 20 c2 dc f2 c3 bf
       -0.014313386544892448 -0.15584907034746381
000100 b0 44 1f a6 de b5 b7 bf 64 3c b0 11 ec 03 c0 bf
       -0.09261886172977785 -0.1251196943635221
000110 38 fa 45 a6 d4 b0 b7 3f 0e d8 a6 3a 82 d6 d7 3f
       0.09254197177322332 0.37246757247646733
000120 c2 14 c4 fe 83 15 da bf 2c a8 7f 41 c8 95 c9 bf
       -0.4075632083843851 -0.19988349149872542
000130 28 8a ac 6c b1 28 ca 3f 60 93 f9 b3 21 93 da bf
       0.20436685377451735 -0.41523020339655226
000140 38 99 e2 95 51 53 bf 3f 4c 96 3a 8a 3f 4b c0 3f
       0.12236509236627036 0.12729639291244366
000150 4c 8a 94 af dc c6 d6 bf bd d5 b9 92 57 a9 da bf
       -0.3558875765467391 -0.4165858204717912
000160 38 38 d8 fb 30 1a d7 3f dc b4 21 e5 7e 82 cf bf
       0.36097359270286544 -0.24616991222447993
000170 40 38 c7 18 04 f2 d2 3f 8a 2a 22 d2 b4 34 d1 3f
       0.29602148456331534 0.26884193917127475
000180 04 56 40 0d 7d 63 ce bf 65 d0 12 0e d6 17 da bf
       -0.23741114756619208 -0.40770484327663886
000190 a8 61 98 eb df f2 ca 3f a0 e6 f2 60 35 0f 98 3f
       0.21053694728540262 0.023495515863692362
0001a0 78 0e 0c dd 46 76 a3 bf 8e a9 45 7a 15 5b d9 bf
       -0.03801175545052343 -0.3961843198836953
0001b0 d4 c0 d2 22 dc 70 d2 3f 9e b3 63 bb c5 c6 ce bf
       0.2881384220190857 -0.24044105195880844
0001c0 04 f3 6a 61 61 13 c3 3f 0c 09 a1 72 6a c5 ce 3f
       0.1490289426491459 0.2403996524536257
0001d0 17 d0 14 c7 6b 56 c9 bf 18 19 85 9d c2 97 ac 3f
       -0.19794985981718646 0.05584533856249346
0001e0 34 27 8c 6b 86 06 b2 bf 12 e0 f1 f1 d8 ff d8 bf
       -0.07041206479712231 -0.39061568858551354
0001f0 20 d9 11 f7 99 56 d0 bf 68 32 cf 8d a5 ec bb bf
       -0.25528573158170964 -0.10907969200270318

bias f8 [1, 32]
000000 00 00 00 00 00 00 00 00 00 00 00 00 00 00 00 00
       0.0 0.0
000010 00 00 00 00 00 00 00 00 00 00 00 00 00 00 00 00
       0.0 0.0
000020 00 00 00 00 00 00 00 00 00 00 00 00 00 00 00 00
       0.0 0.0
000030 00 00 00 00 00 00 00 00 00 00 00 00 00 00 00 00
       0.0 0.0
000040 00 00 00 00 00 00 00 00 00 00 00 00 00 00 00 00
       0.0 0.0
000050 00 00 00 00 00 00 00 00 00 00 00 00 00 00 00 00
       0.0 0.0
000060 00 00 00 00 00 00 00 00 00 00 00 00 00 00 00 00
       0.0 0.0
000070 00 00 00 00 00 00 00 00 00 00 00 00 00 00 00 00
       0.0 0.0
000080 00 00 00 00 00 00 00 00 00 00 00 00 00 00 00 00
       0.0 0.0
000090 00 00 00 00 00 00 00 00 00 00 00 00 00 00 00 00
       0.0 0.0
0000a0 00 00 00 00 00 00 00 00 00 00 00 00 00 00 00 00
       0.0 0.0
0000b0 00 00 00 00 00 00 00 00 00 00 00 00 00 00 00 00
       0.0 0.0
0000c0 00 00 00 00 00 00 00 00 00 00 00 00 00 00 00 00
       0.0 0.0
0000d0 00 00 00 00 00 00 00 00 00 00 00 00 00 00 00 00
       0.0 0.0
0000e0 00 00 00 00 00 00 00 00 00 00 00 00 00 00 00 00
       0.0 0.0
0000f0 00 00 00 00 00 00 00 00 00 00 00 00 00 00 00 00
       0.0 0.0
