step6/Bank_2N3/w_32_3_InitialMethod.Xavier_init.npz (npz, 1300 bytes, 2 tensors)

weights f8 [32, 3]
0	0x3f9f9c026278c260	0.030868565807568138
1	0xbfc6ee5c04feb819	-0.17914915317436522
2	0x3fc4eec622662f28	0.1635368030514368
3	0x3fa787c8a1d00200	0.045957822563654105
4	0xbf953b28db7aa380	-0.020733488460482175
5	0xbfb05626d94aca2c	-0.063814571428147
6	0xbfbf3abf90676560	-0.1219901778744279
7	0x3fd90de3b83d599c	0.3914727496352499
8	0x3fc4ac71f34cc280	0.16151260738253725
9	0x3fb923703aded8b0	0.09819699704425733
10	0x3fcd51ab9bd3fc3c	0.2290548811797367
11	0x3fc6ec9566295700	0.1790949581942911
12	0xbf938a9458cd65c0	-0.019083326263489075
13	0xbfd45822ac2baadb	-0.3178793603280334
14	0x3fd1aca1ca0a651c	0.27616162043121206
15	0x3fb6e97a1e9b76e8	0.08950007674453853
16	0x3fc2bef41cee48b0	0.1464524403823524
17	0xbfc5d3aa67b4cca1	-0.1705220228555833
18	0xbf9d08572416e8b0	-0.028352128579833547
19	0xbf952f62fa9b5bf0	-0.020688578172521177
20	0x3fd2f4ab83cad700	0.2961834704432107
21	0xbfbc54097898a5f4	-0.110657302801563
22	0xbfcf700a1b7678da	-0.24560667363124972
23	0xbfd22c08c044b844	-0.28393763328756827
24	0xbfcb002af1845361	-0.21094261925523042
25	0x3fd9795bd95a3626	0.3980321524221345
26	0x3faea51ed070cf28	0.05985351843301451
27	0x3fd205cea6841748	0.28160444508863636
28	0xbfd7a4e38f044b80	-0.36943901983720906
29	0x3fd6ba60d55f3a0c	0.355125625964235
30	0xbfc2df75bd58531e	-0.1474444555793974
31	0xbfc474e6c926d5a4	-0.15981755086765503
32	0x3fd2ae99012ce296	0.29190659632471616
33	0x3fbd3ba07ff220f0	0.11419108508755804
34	0xbfacdf458673d360	-0.05639092699303805
35	0x3fc5d06fa840e794	0.1704234668302972
36	0xbfabe6ad95a806d8	-0.054494308966253235
37	0x3fcfe736a9b85ca8	0.2492435768806207
38	0x3fd9d4be5fa88de0	0.4036098417438705
39	0x3fd365aa553645ba	0.30308016129955784
40	0x3fd03800a464237c	0.2534181218512044
41	0xbfd0a4cd5db1fd91	-0.2600587286942409
42	0xbfd0d9e0e4b43a38	-0.2632982476651793
43	0x3fb5bf3cf206eefc	0.0849493113409458
44	0x3fb3dacea44a8808	0.07755748282446018
45	0x3fc3909fd23c9490	0.15285108342610387
46	0xbfca030f880aba1b	-0.2032184042231656
47	0x3fd5c52ef17db990	0.3401601179420135
48	0xbfb3b5eb5146f058	-0.07699461683563535
49	0xbfb46567b1ac1c4c	-0.07967231834128191
50	0x3fd7b3633c19557c	0.3703239523795998
51	0x3f83953779678a60	0.009561952011556574
52	0x3fc1c39e88ac7484	0.13878232644575317
53	0x3fd32a39ab6e5040	0.29945222607898714
54	0x3fd0970bd12b924a	0.2592191260030502
55	0xbfc1b7fb3de5650a	-0.13842716715115727
56	0x3fd3c1a77c1d0b12	0.3086947166486179
57	0x3fca3cbbe8ceebe8	0.20497845523445268
58	0x3fb4d63088f07334	0.08139327376597977
59	0x3f83c30964f3baa0	0.009649346726715635
60	0x3fd139bfab69ad5e	0.26914970149547013
61	0x3fd228552356ea88	0.2837117047417128
62	0x3fa2fe1c371a1c48	0.037094957090680725
63	0xbfc3fa0ff6c5d924	-0.15606879758315373
64	0xbfbf2c4502549928	-0.12176924998184246
65	0xbfbaa4c6105754e4	-0.10407674693063346
66	0x3fd11ae0bf7af4b4	0.26726549815414136
67	0x3fc13e2ea8c4e2b0	0.13471015206029824
68	0x3fa1872782f658d8	0.034234270798309374
69	0x3fd95eac879f4e0e	0.3964034389912009
70	0x3fd002c4fa5ff9f8	0.2501690335338078
71	0xbfcc50931131d68e	-0.22120893802246083
72	0xbfad9e6e75856a18	-0.05784936127266266
73	0x3fd76188f64d5274	0.36532806446965727
74	0x3fda7aa25c3e506c	0.41373499878068887
75	0x3fd55ca031ac99e4	0.3337784276103817
76	0x3fd525b6773e8412	0.3304268040174644
77	0x3f9b11e0d8a6ca80	0.02643538782440169
78	0xbfcabe624cd46e3a	-0.20893505813079277
79	0xbfda7de66f7a1dfe	-0.41393433462550877
80	0x3fd517fe3928064a	0.3295894201438371
81	0xbfcf053d8119b35e	-0.24234741977434288
82	0xbfd4d82a885b9445	-0.3256937343233555
83	0x3fbeabdd35cd9ca0	0.11980993808320983
84	0xbfb95e881963729c	-0.0990986883147777
85	0xbfc3c747adb63dba	-0.15451904279733047
86	0x3fcc7e8fbd6b6148	0.22261234997746215
87	0x3fb87d0113d7e728	0.0956574128576021
88	0x3fcaae6fbd17791c	0.20844837887757073
89	0xbfd18a2c82e94b10	-0.27405846390063093
90	0x3fc3068a9f904f48	0.1486371306533505
91	0xbfda27c254731aa4	-0.4086767029479381
92	0x3fc18f821ef0a544	0.13719202528708696
93	0xbfd12da3df942bbe	-0.26841065248362017
94	0xbfd4768011d9967a	-0.31973268263968857
95	0xbfd6bf2f82ac556e	-0.35541904221584886

bias f8 [1, 3]
0	0x0000000000000000	0.0
1	0x0000000000000000	0.0
2	0x0000000000000000	0.0
