step6/Bank_2N3/w_64_3_InitialMethod.Xavier_init.npz (npz, 2068 bytes, 2 tensors)

weights f8 [64, 3]
000000 99 bc 84 d2 ab 1e cf bf f1 16 f5 f7 38 b3 c8 bf
       -0.2431235101625802 -0.19296943766874322
000010 c8 74 2a 87 1c d9 ba 3f 20 02 06 49 22 e9 8f 3f
       0.10487535762736677 0.015581386426448296
000020 00 b7 d3 b7 42 52 79 3f b8 7d 83 64 d6 91 c9 bf
       0.006181965463140093 -0.1997631064213985
000030 68 97 f7 02 de d3 a2 3f e1 87 80 ed d5 68 d0 bf
       0.03677266870708601 -0.25639866059839106
000040 78 24 11 49 9f f5 d0 3f e8 4c e5 aa 80 10 b4 3f
       0.264991589884239 0.07837680980928818
000050 8c 0d 0a f4 5c f2 b3 bf 20 57 9d 98 4a 44 86 bf
       -0.07791691740026446 -0.010872442991665177
000060 e7 4b 44 31 ab 43 d0 bf c8 b1 cc 11 6f 4e b8 3f
       -0.2541301709290437 0.09494680580673454
000070 3a b6 3b b5 4e 56 d2 bf 07 27 5a 29 94 93 c0 bf
       -0.28651778887328627 -0.12950374621532765
000080 30 69 51 ed 41 b3 9f bf 70 ec d0 a0 50 8a 9d 3f
       -0.030957250699750805 0.028847942176281227
000090 a2 10 2a c7 02 89 b5 bf 80 26 2e b1 1c a0 65 3f
       -0.08412186968240801 0.002639823951032849
0000a0 2e 63 19 7e db 6b d1 3f d6 ff a0 f3 57 af b4 bf
       0.27220809282657654 -0.08080053041430743
0000b0 90 7b 44 95 d1 ad a2 3f 18 99 d2 28 15 f2 b2 bf
       0.03648238131631054 -0.07400638815542881
0000c0 21 82 da 91 b9 3b c8 bf 38 92 07 f4 fd c6 b3 3f
       -0.18932265874629287 0.07725512702706616
0000d0 60 cf 04 4e d9 46 ac 3f 16 ca b4 87 92 b6 c1 3f
       0.055228033803728094 0.1383841669681522
0000e0 f8 35 28 47 2d 19 a2 bf 36 44 da 5f b5 ef c2 3f
       -0.03534833425156231 0.14794032268813034
0000f0 a6 f0 ca 42 55 63 c1 3f 70 85 19 f4 7c 19 b2 bf
       0.13584390412677755 -0.07070141753640313
000100 ca 1f 57 ce c3 43 d2 bf da 91 a6 b3 26 a7 b8 bf
       -0.2853860392610811 -0.09630052457811847
000110 f0 ef 8a 15 2f ff d2 3f 4c e7 1c 01 89 45 b1 3f
       0.29682519058019263 0.06746727254076496
000120 e0 7e 35 cf d4 7e a6 bf 2e af 95 26 68 e9 c2 3f
       -0.043936395925582294 0.14774801143664135
000130 40 e1 5e 2b 5c a9 a0 bf 40 d3 7e ec 7b 00 77 3f
       -0.03254211453844613 0.005615696027167882
000140 f4 08 43 9b bc ff b7 bf 1e 5e 70 a0 36 3a d0 3f
       -0.09374598303387299 0.25355306308617453
000150 be 0a 12 9b 7c 69 c4 bf 04 4c c5 be 2c 3e b8 bf
       -0.15946919986534697 -0.09469871194350793
000160 38 7a 1b bf 5c ef d2 3f a8 18 76 41 7d ea c6 bf
       0.29585951483560136 -0.17903104492524347
000170 7f 3c 34 76 ea ee c5 bf 7c 0c 56 37 0e f0 b4 3f
       -0.17135363361055408 0.08178795672397315
000180 43 0a f4 5a 7a ac d1 bf c2 da 87 40 12 7c c1 3f
       -0.27615221864849476 0.13659885550415224
000190 08 1d 38 7c c4 64 d0 3f 14 5a 69 c3 3d c4 c8 3f
       0.25615036135464253 0.19348880807474755
0001a0 a4 28 73 25 bf c8 c0 3f 30 07 de 9f 65 7c c9 3f
       0.13112630203824438 0.19910879426975603
0001b0 1e 4f 9b 81 a2 ad c7 bf 54 a2 08 99 a1 29 ce bf
       -0.1849864132733438 -0.23564548466062496
0001c0 de a1 9f 0e 25 4c d1 bf e6 65 11 be 9b 21 d0 bf
       -0.2702725069816817 -0.2520512920505936
0001d0 e3 2b 1f bd 19 39 c6 bf b0 eb f8 fb 22 b1 98 bf
       -0.17361757025204758 -0.02411322272221711
0001e0 80 fe d3 ab b1 17 a8 3f e0 e4 f7 b6 01 77 ca bf
       0.04705577108870518 -0.20675679620743548
0001f0 5a e3 58 51 01 1a d1 bf b4 ac cd ca 5e 56 cb bf
       -0.26721222824158064 -0.21357331182966777
000200 84 96 a3 ec ec d2 bd bf 81 2d be c9 d0 0f c9 bf
       -0.11649971749610627 -0.19579515314795162
000210 3a 63 d1 57 e6 52 cd bf b8 c6 08 35 ee 6c a4 3f
       -0.2290924004362525 0.0398935737361063
000220 d0 58 cc 0d 70 3e b4 bf 20 b4 75 41 f5 c3 8d bf
       -0.07907772385474066 -0.014533916530775015
000230 f4 ed eb aa 92 47 d1 3f cc 5b 95 e2 1d cf c9 3f
       0.26999346438944305 0.20163320125240458
000240 ba a2 ae 43 32 74 d1 3f 85 39 60 25 02 9f ce bf
       0.2727170620878884 -0.23922755074495342
000250 00 75 52 82 40 08 ae 3f 28 55 d6 ae b2 4e a5 3f
       0.058656707676371767 0.04161604294055571
000260 a0 45 34 d4 db 1e 8f 3f 95 4c 75 73 75 f7 d1 bf
       0.015195577062089793 -0.2807286860963328
000270 00 66 69 c4 97 ec 95 3f c0 1a 72 dc 2c 72 cb 3f
       0.02141034256269414 0.2144218517680283
000280 a8 1e e1 55 c0 48 ad 3f 18 fd e7 fe b4 db cb 3f
       0.0571956734498234 0.217642425981446
000290 b8 d9 83 88 ab 18 c6 3f 0c 73 42 8e 65 f8 ca 3f
       0.17262787023328285 0.21070546575801818
0002a0 f0 97 86 ea cb 86 9d bf c4 f9 a4 67 97 ef ce bf
       -0.028834520520511775 -0.24168675003779871
0002b0 24 51 e8 1b 50 9c cf bf 34 30 11 32 69 74 cd 3f
       -0.2469577919261009 0.23011507935223252
0002c0 d4 59 77 63 0a 65 bb bf 14 7f 1f e3 e5 5a b0 3f
       -0.10701050690054298 0.06388699336048048
0002d0 38 88 ba 8e 72 71 c6 3f 7c 3b f9 b1 12 64 b6 3f
       0.1753371426503365 0.0874644932275554
0002e0 22 b9 07 40 69 70 d0 3f 20 d9 e3 40 52 c5 85 bf
       0.2568610310835472 -0.010630266766821495
0002f0 29 8a d3 c9 78 7a c0 bf 28 b0 db 01 9b 25 c0 3f
       -0.1287375436287033 0.126147628695777
000300 a8 52 a6 e5 1a 26 ba 3f 98 bb 72 62 27 57 c6 bf
       0.10214393717462633 -0.17453472430267136
000310 aa 05 02 19 c1 d3 d2 3f 5c e8 93 0e 72 cc b6 bf
       0.2941744560449374 -0.08905709129240463
000320 b8 e2 cb 4b a3 af ad 3f a8 15 a0 36 07 f7 a3 bf
       0.05798063564538353 -0.03899405042470089
000330 50 56 22 fe e8 32 c7 bf 18 da 7b de f4 29 b3 3f
       -0.18124115380185168 0.07485895568593326
000340 c4 fe 00 c9 37 90 be 3f 3e 6c 3c a0 bb 47 c9 3f
       0.11938809068032713 0.19750161479973544
000350 fe d2 0e fd a4 a0 c9 3f a8 03 ef 79 e6 75 c0 3f
       0.20021498066275706 0.1285980315570019
000360 d0 b5 f7 70 d6 ca cb 3f 60 6a ae 10 a9 3e a0 3f
       0.21712761417386028 0.03172806099538117
000370 14 02 a2 19 83 f2 c6 bf c2 ee 17 58 43 ea d2 3f
       -0.17927588225940438 0.29554828265075284
000380 aa ea a7 7b 8f e8 b5 bf 5a 50 93 04 0b 13 d1 3f
       -0.08557984131759136 0.26678729483433516
000390 a4 1d 86 f5 87 1c ae bf fe af 2c 92 12 e8 b8 bf
       -0.058811424943139984 -0.09729114598002295
0003a0 68 2b 16 b3 45 4a b2 3f c4 0b a2 f4 dc ac cf bf
       0.07144580480796281 -0.24746286339731516
0003b0 26 ff 1f e7 89 28 b0 bf 9a 7b 44 d6 48 af c6 bf
       -0.06311857121181372 -0.17722425901680766
0003c0 40 fd e5 ac 2b 4a d0 3f 72 82 cb bf 14 52 b2 bf
       0.25452701458558025 -0.0715649574517643
0003d0 b8 67 18 11 37 7f d1 3f 42 98 49 13 18 06 c0 bf
       0.2733895937868698 -0.12518597547313176
0003e0 aa 15 0e 7e 28 ab d0 3f 60 77 f8 73 00 61 98 bf
       0.26044666585979803 -0.023807532385141328
0003f0 f1 4e 8a e4 2c bc d2 bf 58 5d d8 9d bf 38 d2 bf
       -0.2927353126371904 -0.28471365370338253
000400 08 15 a7 48 e2 e1 b9 3f 60 25 66 ca 69 ee 88 bf
       0.10110296510454841 -0.01217348717615846
000410 04 74 91 2a 86 e6 cb bf e8 62 8d 6b 68 ad d2 3f
       -0.21797253683590168 0.2918339777293526
000420 6a 1f 64 9b 08 25 c1 3f 44 5f 06 59 dc f7 d1 3f
       0.1339426764245631 0.28075321859204316
000430 f0 d4 df 9f ea 29 c6 3f dc e0 ef 51 bc 65 cb 3f
       0.1731541901241722 0.214042224891961
000440 d0 44 c7 50 8b de a9 3f 58 60 1d 7b 99 9f cc 3f
       0.050526002512592094 0.22362059127294986
000450 40 90 7c cc b9 4d ba bf 42 c5 ea c1 12 59 c4 3f
       -0.10274850122783707 0.15896830052001049
000460 3b aa cf 78 0f 6b c5 bf 58 7d fa 75 2d 9e cc 3f
       -0.1673297252558131 0.22357719669978837
000470 46 87 cb 58 8a fa b1 bf 54 1f 73 39 d1 ed cc 3f
       -0.07022919338080866 0.22600760750924087
000480 dc 12 37 41 08 0e b5 bf b6 92 7e 9c 68 87 d0 3f
       -0.08224536506811425 0.2582646873727684
000490 34 eb a0 51 7f e3 b3 3f 86 85 75 5c 98 11 d0 bf
       0.07769008391271087 -0.2510739233894913
0004a0 b6 b8 0c 05 f3 6e bd bf 27 84 49 e6 20 0a ca bf
       -0.1149742019012788 -0.20343409771433693
0004b0 5a 9c 76 87 28 85 b7 bf d5 76 66 55 8a 34 c0 bf
       -0.09187558467111626 -0.1266034047120487
0004c0 44 de be 23 68 37 ba bf 04 4e fd 08 43 2e d2 3f
       -0.10240794060416031 0.2840735996043977
0004d0 b2 ff b4 4c 54 d2 b7 bf 28 2c dd d5 e5 da a0 bf
       -0.09305312035303251 -0.03292005763668043
0004e0 94 06 26 22 76 21 b5 3f 5c 16 51 e5 67 b9 c9 3f
       0.08254183133797205 0.20097063729388054
0004f0 6f 6a 15 fd 84 41 c3 bf 62 35 86 fb e9 0f d0 3f
       -0.15043699605560643 0.25097131312289467
000500 8a a9 36 cd ab f6 ba bf 00 f2 fe dc eb 23 cd bf
       -0.10532640228362858 -0.22765873232664546
000510 b8 2a e3 36 74 07 a8 3f 26 65 7d 5b 5a a6 bb bf
       0.046931869220846634 -0.10800709470403955
000520 6a 9a dd 99 18 7c c8 3f 0a 35 7a 35 fb fa be bf
       0.19128711235972 -0.12101717048263452
000530 00 f3 cf 08 2c 8e ba bf 7c 21 62 b3 ea 35 cc 3f
       -0.10373187270301898 0.2203954101462492
000540 fc 39 32 a7 86 bf aa bf 1a 3e cc 4c fc 42 d1 3f
       -0.052242477330867815 0.26971347331797946
000550 80 6d 7c 43 61 85 ba bf 94 6d 5d e1 e2 4e c3 3f
       -0.1035977163086752 0.15084491733692273
000560 aa 16 9e c9 18 79 c3 bf ce c7 94 19 c9 a5 c9 3f
       -0.15213308186155433 0.20037187336998702
000570 70 8b bd 32 2e 22 98 bf bc 97 9d 83 3d 86 ae bf
       -0.023567888113926683 -0.05961792213092518
000580 71 bb f6 40 de bb d1 bf c0 0f 22 94 3b 81 79 bf
       -0.2770915636455618 -0.006226761559563643
000590 a2 a3 b0 a6 38 e8 c5 bf a0 7e 21 72 ee 56 c2 bf
       -0.17114933146629335 -0.14327793667597621
0005a0 78 c7 22 0a 64 26 bd 3f 00 c1 19 64 9f 44 9f bf
       0.11386704680879045 -0.030535212025314173
0005b0 3a 12 22 2c 14 c0 c3 3f 90 bc 33 3b ba 49 c2 bf
       0.1542992797368628 -0.14287498369910567
0005c0 44 e6 90 f3 67 ac cf 3f 6c 6c 26 6a 61 48 c5 3f
       0.24744891541358716 0.16627137835607486
0005d0 26 13 a0 aa ad 85 d0 bf 42 9f c6 fd 0f d8 d0 3f
       -0.258159081102621 0.2631874063758809
0005e0 ae 57 52 e2 92 f9 bd bf 38 2c 8d 31 c1 1c b1 3f
       -0.11708944344931524 0.06684501132728904
0005f0 80 eb 25 27 8b 6b 60 bf f4 97 e0 99 ad d2 bd bf
       -0.0020044057684435734 -0.11649594313402628

bias f8 [1, 3]
000000 00 00 00 00 00 00 00 00 00 00 00 00 00 00 00 00
       0.0 0.0
000010 00 00 00 00 00 00 00 00
       0.0
